model-vit-mnist.pth (torch, 883304 bytes, 74 tensors)

pos_embedding f4 [1, 17, 64]
0	0x3e8619f1	0.26191667
1	0x3fa94618	1.3224516
2	0x3f642d90	0.8913202
3	0xbe3ce5df	-0.18447064
4	0x3ef23611	0.47306874
5	0x3f6a706c	0.9157779
6	0xbf470404	-0.777405
7	0xbef71f32	-0.48265988
8	0x3964ee20	0.00021832483
9	0xbf3ca14b	-0.73683614
10	0xbf51dfec	-0.819823
11	0xbfad25c9	-1.3527156
12	0xbecff6f1	-0.4061809
13	0xbf1fc880	-0.62415314
14	0xbeb6700e	-0.35632366
15	0x3f83b6fa	1.0290215
16	0x40121594	2.282567
17	0xbfb9e9a6	-1.4524429
18	0x3f235482	0.63800824
19	0xbd67bca5	-0.05657639
20	0x3ff317e6	1.8991668
21	0x4027bbf5	2.620847
22	0xbea55bbf	-0.3229656
23	0xbef53d03	-0.4789811
24	0x3f4c582a	0.7982203
25	0x3daf1d94	0.085505635
26	0x3fdec5b7	1.7404088
27	0xbf92b91b	-1.146274
28	0x3f69363b	0.91098374
29	0x3f8810ca	1.0630124
30	0xc009cb5d	-2.1530373
31	0xc0547c37	-3.3200815
32	0xbf29d7ec	-0.66345096
33	0xbfccf27a	-1.6011498
34	0xbf68224b	-0.90677327
35	0x3f048a1c	0.5177324
36	0x3efea487	0.497349
37	0x3fc44ebe	1.533653
38	0x3fd16d15	1.6361414
39	0x3fa2691c	1.2688327
40	0x3ec9e2ea	0.39430934
41	0xbeb6bdab	-0.3569158
42	0xbe893808	-0.2680056
43	0xbf6e337f	-0.93047327
44	0x3f3aa83a	0.72912943
45	0x3ebb8078	0.3662145
46	0x3f730542	0.949299
47	0xbf1feefe	-0.6247405
48	0x3fdeefe2	1.7416956
49	0xbfdfafe1	-1.7475549
50	0x3f184110	0.5947428
51	0x3d5684be	0.052372687
52	0x40007991	2.0074198
53	0x3f750c98	0.9572234
54	0x3e38ce50	0.18047452
55	0xbf5d34d5	-0.8640874
56	0xbf5c285c	-0.85999084
57	0x3f513d3f	0.8173408
58	0xbf616cc3	-0.8805658
59	0xbdf2ccfb	-0.11855503
60	0xc06daca0	-3.7136612
61	0x3fb527d6	1.4152782
62	0x3e468562	0.19386819
63	0x3fa205c0	1.2658005
64	0x3e9621f6	0.29322785
65	0xc00d6364	-2.2091913
66	0xbf1a36b9	-0.6023975
67	0xbff42706	-1.9074409
68	0xbf47551b	-0.77864236
69	0x3f277116	0.6540693
70	0xbf268794	-0.65050626
71	0xbf8e5aa5	-1.1121413
72	0xbe9511b2	-0.29115063
73	0xbfabea2a	-1.3430836
74	0xbec78539	-0.38968828
75	0x3d5b9de8	0.053617388
76	0x3f3cabdd	0.7369974
77	0xc02c57d3	-2.6928604
78	0x3e4efa14	0.20212585
79	0xc02a18e8	-2.6577702
80	0xbff5f635	-1.9215761
81	0xc05b9048	-3.4306812
82	0xbf45810a	-0.77150023
83	0x3f193fbb	0.5986287
84	0xbf8599e6	-1.0437591
85	0x3eaca873	0.33722267
86	0x3f0b7849	0.54480416
87	0x3f119ac4	0.5687678
88	0x3ed1a523	0.40946302
89	0x3ff1a270	1.8877697
90	0x3f1ce72d	0.61290246
91	0xc05624fe	-3.3460078
92	0xc0113147	-2.2686327
93	0x3e07cca5	0.1326166
94	0xbf6f9801	-0.93591315
95	0x3ff1c5d0	1.8888493
96	0x3fd63ea7	1.673787
97	0x3f1690af	0.5881452
98	0x3f44c23f	0.76858896
99	0xbffa4c43	-1.9554523
100	0xbf95e177	-1.1709431
101	0x3ee5d7bd	0.44891158
102	0x3e2d7002	0.16937259
103	0x3f4a9f03	0.7914888
104	0xc04229f9	-3.0338118
105	0x4014bc0f	2.3239782
106	0x3f4acf84	0.79222894
107	0x3fd50dde	1.6644857
108	0x4040ab33	3.0104492
109	0x3f634ee4	0.8879225
110	0x3f495177	0.7863993
111	0xbf48d96d	-0.78456765
112	0xbea60118	-0.3242271
113	0xbf6a2961	-0.9146939
114	0xbf91d096	-1.139178
115	0xbe4d7d43	-0.20067315
116	0x3dac79ee	0.08421694
117	0xbe0febd2	-0.14054802
118	0x4086b40b	4.209478
119	0x3ee28dd0	0.4424882
120	0x3f92e256	1.1475322
121	0x400f6943	2.2407997
122	0x3e86945f	0.26285073
123	0xbf9cdace	-1.2254274
124	0xc0356e58	-2.8348598
125	0xbfdc2adb	-1.7200578
126	0x40153673	2.3314483
127	0x3f9a518c	1.2056136
128	0xbe432f80	-0.19061089
129	0x3e9a3080	0.30115128
130	0xbeb8bc04	-0.36080945
131	0xbe9e2728	-0.3088925
132	0xbec0e67f	-0.37675855
133	0xbf6243a7	-0.8838448
134	0xbf3a791f	-0.72841066
135	0x3f4add17	0.79243606
136	0x3f1d784e	0.61511695
137	0x3f87ff55	1.0624796
138	0xbf8992a9	-1.0747882
139	0x3e74dbb5	0.23911937
140	0xc06f1783	-3.73581
141	0xc053b7ba	-3.3080888
142	0x3ea916d4	0.3302523
143	0x3fdc6d06	1.7220771
144	0x3e75d2a2	0.24006131
145	0x3fbd21b6	1.4775913
146	0x3fd7eaae	1.6868494
147	0x3f8e9cfc	1.1141658
148	0x3f254cad	0.6457012
149	0x40106f1c	2.2567816
150	0xbe5045fd	-0.20339198
151	0xbf025885	-0.5091632
152	0xbf9e6d5a	-1.2377121
153	0xbec02d65	-0.37534633
154	0x3e57aea2	0.21062711
155	0x3f406d51	0.75166804
156	0xbf989b9e	-1.1922491
157	0x3e3959fa	0.1810073
158	0x3e92916c	0.28626573
159	0xbf51c93c	-0.81947684
160	0x3f87dd2c	1.0614371
161	0xbf0bb534	-0.5457337
162	0xbfd430bb	-1.6577371
163	0x3febf024	1.843266
164	0x3db856aa	0.09000905
165	0xbd4ecb1e	-0.050486676
166	0xbf594e22	-0.84884846
167	0x3e988a3a	0.29792958
168	0xc0214751	-2.5199778
169	0x3fbeb87f	1.4900054
170	0x3f17323e	0.5906104
171	0xbf81f2b7	-1.0152196
172	0x404569e6	3.0845885
173	0x3fb84980	1.439743
174	0xbef3991f	-0.4757776
175	0x3e63b6c3	0.22237687
176	0x400477c5	2.0698102
177	0x3e11e88e	0.14248869
178	0x3ed6cf2d	0.41954938
179	0xbf406485	-0.7515338
180	0xbef828dd	-0.48468676
181	0x3f2d53e6	0.67706144
182	0xbf338a6b	-0.70133084
183	0xbc8d501e	-0.017250117
184	0xc0037902	-2.0542607
185	0x3f4cdfd6	0.80029047
186	0x3ffe26bc	1.9855571
187	0xbf82aec9	-1.020959
188	0xbf9742ba	-1.1817238
189	0xbf1795dd	-0.5921305
190	0x3fcd9a3c	1.6062694
191	0x40975323	4.7288985
192	0xbfd7d8c5	-1.6863028
193	0xbf57516d	-0.8410862
194	0xbf0af0b5	-0.5427354
195	0x3f69fbf5	0.9140008
196	0x3ff3a4d5	1.9034678
197	0x3e37517a	0.17902175
198	0xbedd4963	-0.43220052
199	0xbee7b4f7	-0.45255253
200	0xbfaee541	-1.3663713
201	0x3e6c5727	0.23080121
202	0xbaa64e4f	-0.0012688133
203	0x40414703	3.0199592
204	0xbffd47bd	-1.9787518
205	0x3fe376e2	1.7770655
206	0x3e8eb103	0.27869424
207	0x3e99a26a	0.30006725
208	0x3ded9d15	0.11602227
209	0x40053463	2.0813224
210	0x3f5fec6c	0.87470126
211	0x3e5e7da2	0.21727613
212	0xc02367f6	-2.5532203
213	0xbfbd0d93	-1.4769768
214	0xc0382674	-2.877347
215	0xbe8d4a7d	-0.27595893
216	0x3e69548f	0.22786163
217	0xbe6c7186	-0.23090181
218	0xbf396152	-0.72414124
219	0xbe01658b	-0.12636392
220	0x3fff30e8	1.99368
221	0xbffad63d	-1.959663
222	0x3fa249ac	1.2678733
223	0xbf9d967e	-1.2311552
224	0x40366259	2.8497527
225	0xbf75e1a3	-0.9604742
226	0x3f0e7c8e	0.55658805
227	0xbe2a9c59	-0.16661204
228	0xbeb0849c	-0.34476173
229	0x40178b36	2.3678718
230	0xbf42f27f	-0.7615127
231	0xbf591648	-0.84799623
232	0x3af1b306	0.0018440194
233	0xbfa26727	-1.268773
234	0xbeef7154	-0.4676615
235	0x3faa5362	1.3306696
236	0xbf91e502	-1.1398013
237	0x3f44e08f	0.7690515
238	0xbfd770be	-1.6831281
239	0xbfc63d04	-1.548737
240	0xbf9e3a35	-1.2361513
241	0x3f6642b4	0.8994553
242	0xbffbce5e	-1.9672353
243	0x400447b0	2.0668755
244	0x3f80e68b	1.0070356
245	0x3f664fa5	0.8996528
246	0x3d4577c3	0.048209917
247	0xbfc260a4	-1.5185742
248	0xc043fbcd	-3.0622437
249	0xbd99e22c	-0.07513842
250	0xbe4fb63a	-0.20284358
251	0x3f8d5985	1.1042944
252	0x3ec68c53	0.38778934
253	0xc027ac7a	-2.6199021
254	0x409a3093	4.8184295
255	0x3edee154	0.43531287

cls_token f4 [1, 1, 64]
0	0xbe6197eb	-0.22030608
1	0x3f735ab6	0.9506029
2	0xbd031fda	-0.032012798
3	0x3ed291a0	0.41126728
4	0xbdfafa08	-0.12254721
5	0x401d0a87	2.4537675
6	0x3ee60f33	0.4493347
7	0xbf9699b9	-1.1765662
8	0x3f49d896	0.7884611
9	0xbf505359	-0.8137718
10	0xc0798ae3	-3.899102
11	0x4041b8c3	3.026902
12	0xbf9a9d05	-1.2079169
13	0x3f1448cc	0.5792358
14	0x3f9d8154	1.2305093
15	0x3da630a6	0.08114748
16	0xbf093f65	-0.5361236
17	0x3db3802c	0.08764681
18	0x3ff44153	1.9082435
19	0xbf6de80c	-0.929322
20	0x3ebbc0ae	0.3667044
21	0x3ed45356	0.4146983
22	0xc0002c0a	-2.002688
23	0x3fc01fcf	1.5009707
24	0x4004395a	2.0660005
25	0x3fd763ff	1.6827391
26	0xbf39756d	-0.724448
27	0x3ef74136	0.4829194
28	0xbffa011d	-1.953159
29	0xbfa235d8	-1.2672682
30	0xbf48ecc9	-0.78486305
31	0xc02bbf2f	-2.683544
32	0xbf570e1a	-0.8400589
33	0x3f12c543	0.5733225
34	0xbfb2aa05	-1.3958136
35	0xbf008730	-0.5020628
36	0x3fd59145	1.6684958
37	0x3fd14146	1.6348045
38	0xbef333f7	-0.47500584
39	0x3f98efcb	1.1948179
40	0xbfb4c109	-1.412141
41	0x3e7a1199	0.24420775
42	0xbf5057c8	-0.81383944
43	0x3f763a9b	0.96183175
44	0x3f8dfb05	1.109223
45	0xbef12ae8	-0.47103047
46	0xc001eb0f	-2.0299718
47	0xbf85d9ef	-1.0457133
48	0x3f2d006a	0.67578757
49	0xbe8381bd	-0.2568492
50	0x3e81968e	0.25310177
51	0xbf65b6c3	-0.89732
52	0xbed71704	-0.42009747
53	0x3e3d37ad	0.1847827
54	0xbeee7aa9	-0.46577957
55	0xc01242c6	-2.2853255
56	0xbff1279b	-1.8840212
57	0xbe791b41	-0.24326803
58	0x3f0e6cb1	0.556346
59	0xbe90cb00	-0.28279877
60	0xbf9a19f8	-1.2039175
61	0x3e976d06	0.29575366
62	0x3f7e388a	0.9930502
63	0xbf42e782	-0.761345

patch_to_embedding.weight f4 [64, 49]
0	0x3eb61fea	0.35571223
1	0xbebc8292	-0.36818367
2	0xbec474b1	-0.38370278
3	0xbea18c8d	-0.31552544
4	0xbf40ce38	-0.75314665
5	0xbf5f81a5	-0.87307197
6	0xbee7de73	-0.45286903
7	0x3c0931ba	0.008373672
8	0xbea3f530	-0.32023
9	0xbda70eb5	-0.08157102
10	0xbef4fa0c	-0.4784702
11	0xbefc7060	-0.49304485
12	0xbe2e26f2	-0.17007044
13	0xbe84169f	-0.2579851
14	0x3e4674c3	0.19380479
15	0x3e785a36	0.24253163
16	0x3edfa625	0.43681446
17	0x3e584a38	0.21122062
18	0x3ed03e60	0.40672588
19	0x3e3ee58e	0.18642256
20	0xbd8470b0	-0.06466806
21	0x3e3ebbcb	0.18626325
22	0x3ecd1231	0.4005294
23	0x3f085a93	0.53263205
24	0x3f29bebb	0.66306657
25	0x3f26e907	0.6519932
26	0x3ee21d34	0.44162905
27	0x3e25fda3	0.16210036
28	0xbe8590d0	-0.26087046
29	0xbe94a84b	-0.29034647
30	0xbe1ca900	-0.15298843
31	0x3eb2073e	0.3477115
32	0x3df973ba	0.12180276
33	0x3de63eb3	0.11242428
34	0x3e1fced6	0.15606245
35	0xbe272d27	-0.16325818
36	0xbe56cef6	-0.20977387
37	0xbe29dbd6	-0.16587767
38	0x3e2749e2	0.16336778
39	0x3ea7000b	0.3261722
40	0x3e2b7448	0.16743577
41	0xbda1a025	-0.07891873
42	0xbf1efb4f	-0.62102216
43	0xbd8b18e2	-0.067918554
44	0x3d71c81b	0.059028726
45	0xbe01aaf6	-0.12662873
46	0x3eb7bd3d	0.35886565
47	0x3eed5373	0.4635273
48	0x3db926a1	0.09040571
49	0x3ed59b67	0.41720125
50	0x3ed395cc	0.41325223
51	0x3e25e826	0.16201839
52	0xbb2acc26	-0.0026061623
53	0x3dae768f	0.08518707
54	0x3e75ae02	0.2399216
55	0x3f41a8a9	0.7564798
56	0xbe64d9e1	-0.22348739
57	0x3cb6e173	0.0223243
58	0xbe0eb289	-0.13935293
59	0xbe9fc96e	-0.31208366
60	0xbeabad2d	-0.3353056
61	0xbec452e5	-0.38344494
62	0x3e67a7f3	0.22622661
63	0xbeffc22b	-0.49952826
64	0xbe2017bd	-0.15634055
65	0xbe19fce3	-0.15037875
66	0xbe3de51e	-0.18544433
67	0xbe9c6824	-0.30548203
68	0xbee5381b	-0.44769368
69	0xbedea558	-0.43485522
70	0xbd8737dc	-0.06602451
71	0xbd89433c	-0.06702277
72	0xbc6fc1c3	-0.014633599
73	0x3c5f3244	0.013622824
74	0x3db22c42	0.08699848
75	0xbea44081	-0.32080463
76	0xbf4e8e1c	-0.8068559
77	0xbde448f8	-0.1114673
78	0xbdc8ecf2	-0.09810819
79	0x3e4cb5a2	0.19991162
80	0x3ecf6d17	0.40512916
81	0x3ecdbdc6	0.40183848
82	0x3dd5f98d	0.10447989
83	0xbd684591	-0.05670697
84	0x3e6140cc	0.21997374
85	0x3ed2821f	0.411149
86	0x3eee37ef	0.4652705
87	0x3f09f23f	0.53885263
88	0x3f12c06b	0.57324857
89	0x3eacf962	0.33784014
90	0x3e4ce842	0.20010474
91	0xbe2f9d0a	-0.1714975
92	0xbe959fcb	-0.29223475
93	0xbec81c0d	-0.390839
94	0xbe59d5e7	-0.21273004
95	0xbee04850	-0.4380517
96	0xbebeac0b	-0.37240633
97	0xbdfe2cfa	-0.12410922
98	0xbf401366	-0.750296
99	0xbeb7afba	-0.35876256
100	0x3df55b21	0.11980272
101	0x3ecde709	0.40215328
102	0x3ecc6a41	0.39924815
103	0x3f2ae2b5	0.6675218
104	0x3f017602	0.5057069
105	0xbed050d3	-0.40686664
106	0x3c2b223a	0.010445172
107	0x3dc2789d	0.094956614
108	0x3caa00e0	0.02075237
109	0x3e74cdb2	0.23906592
110	0x3e45cb7e	0.19315907
111	0x3ec24e0b	0.37950167
112	0x3dd0d07f	0.101960175
113	0x3ea20a6a	0.3164857
114	0x3e983328	0.2972653
115	0x3e9c5db4	0.3054024
116	0x3e32fcd2	0.17479256
117	0x3daa99f7	0.08330148
118	0xbd791371	-0.060809556
119	0xbcf1c07e	-0.029510733
120	0x3db50e35	0.088406004
121	0x3cd043da	0.02542298
122	0x3c3a2f0d	0.011363757
123	0xbe7773f1	-0.24165322
124	0xbe0151d3	-0.1262887
125	0xbe9b693b	-0.30353722
126	0xbe7c94e3	-0.24666171
127	0x3c2ab858	0.010419928
128	0xbcf27d45	-0.029600749
129	0x3d896180	0.0670805
130	0x3e8b9ecd	0.27269593
131	0xbe04309e	-0.12909171
132	0xbe5638e4	-0.2092014
133	0xbdcbe928	-0.099565804
134	0x3ea1d8b3	0.3161064
135	0x3ea43b78	0.3207662
136	0x3e55aae8	0.20865977
137	0xbc9ed67c	-0.019389383
138	0x3e12253a	0.14272013
139	0x3e591267	0.21198426
140	0x3e822a02	0.25422674
141	0x3ec57e31	0.3857284
142	0x3f11351a	0.5672165
143	0x3e1f47cd	0.15554734
144	0x3b616113	0.0034390136
145	0xbc959b4a	-0.018262524
146	0x3eaf8825	0.34283558
147	0x3e7b098f	0.24515365
148	0x3e90af1e	0.28258604
149	0x3ec02b25	0.37532917
150	0x3e8bf2ac	0.2733358
151	0x3ed06def	0.40708873
152	0x3d9999af	0.07500016
153	0xbe9de728	-0.3084042
154	0xbe4220d7	-0.1895784
155	0xbe0623c2	-0.13099578
156	0x3de689ca	0.1125675
157	0x3e1d84cf	0.15382694
158	0x3ece31b9	0.4027231
159	0xbe5cd5fd	-0.21566005
160	0xbd90a9e5	-0.07063655
161	0xbf1eece9	-0.62080246
162	0xbede3898	-0.43402553
163	0x3e1810a0	0.14850092
164	0x3e859f7b	0.26098236
165	0xbd71ce80	-0.059034824
166	0x3dfdde7d	0.12395952
167	0xbe23d99b	-0.16000979
168	0xbed26885	-0.41095367
169	0xbeb2be3e	-0.34910768
170	0x3e520d1d	0.20512815
171	0xbed146d1	-0.4087434
172	0xbda7488f	-0.08168136
173	0xbe5b8f14	-0.21441299
174	0xbea59ff0	-0.32348585
175	0x3e47ac81	0.19499399
176	0x3dfd527c	0.12369248
177	0x3f02537b	0.5090863
178	0x3e3913e8	0.18074
179	0x3e0e1202	0.13874057
180	0xbe69d274	-0.22834188
181	0x3d5522f9	0.052035306
182	0x3e48133d	0.19538589
183	0x3e8653a3	0.26235685
184	0x3ee3fe03	0.44529733
185	0x3ebe7cb1	0.37204507
186	0x3edcf6e1	0.43157104
187	0x3e741bb2	0.2383869
188	0x3e14c8a9	0.14529671
189	0x3d640de5	0.055677313
190	0x3d1e9295	0.03871401
191	0xbf2285f9	-0.63485676
192	0xbf1718e1	-0.5902234
193	0xbdf07b1e	-0.11742233
194	0xbe29995f	-0.16562413
195	0x3daf00a7	0.08545046
196	0x3f80ae50	1.0053196
197	0xbe678cad	-0.22612257
198	0xbcb7b417	-0.02242474
199	0xbd6b2578	-0.05740878
200	0xbdc3e7f8	-0.09565729
201	0xbd126c1b	-0.03574763
202	0xbd743ef0	-0.059630334
203	0x3ebee723	0.37285718
204	0xbdb7246f	-0.08942496
205	0x3d5cbcd4	0.053891018
206	0x3e530cdf	0.20610379
207	0x3e96d895	0.29462114
208	0x3e8fddc1	0.28098872
209	0x3e71446d	0.23561259
210	0xbf4db3ca	-0.8035246
211	0xbe757ea9	-0.23974098
212	0x3d45facc	0.04833488
213	0x3d09af50	0.033614457
214	0x3f25ded9	0.64793164
215	0xbd756e5d	-0.059919704
216	0xbe50a366	-0.20374832
217	0xbee68c53	-0.45028934
218	0x3eb43c56	0.35202283
219	0x3e22b97c	0.15891069
220	0xbe9060f1	-0.2819896
221	0x3e402706	0.18764886
222	0x3c82cf46	0.015967976
223	0xbee61d80	-0.44944382
224	0xbc854c21	-0.016271653
225	0x3ef8fe14	0.48631346
226	0xbd8c3002	-0.06845094
227	0xbe6a750f	-0.22896217
228	0x3c284032	0.010269212
229	0x3de0e5e5	0.10981349
230	0xbdeae6c0	-0.11469793
231	0x3e2ecc6b	0.17070167
232	0x3da2f202	0.079563156
233	0xbdfac712	-0.12245001
234	0x3e09f9de	0.13474223
235	0x3f301913	0.6878826
236	0x3ecc4d3d	0.39902678
237	0xbe7af0cb	-0.24505918
238	0xbe95c144	-0.29249012
239	0xbf26068e	-0.6485375
240	0xbed4ea60	-0.41585064
241	0x3e8df04a	0.27722389
242	0x3eeb6c7c	0.45981205
243	0x3d6e7cb4	0.058224395
244	0xbf4a804f	-0.79102033
245	0xbde28ffa	-0.110626176
246	0x3e192555	0.14955647
247	0xbdb3a7d6	-0.087722465
248	0xbde785d2	-0.11304821
249	0xbe00e391	-0.1258681
250	0x3e3e2a51	0.1857083
251	0x3ee01ce7	0.4377205
252	0xbb0afcaa	-0.0021207728
253	0x3e2873a0	0.16450357
254	0x3cd3f2ec	0.02587267
255	0x3dca3617	0.09873598

patch_to_embedding.bias f4 [64]
0	0xbe95ee96	-0.2928359
1	0xbd863842	-0.06553699
2	0xbe69ff92	-0.22851399
3	0x3dd5fb67	0.10448342
4	0xbeab9e1d	-0.33519068
5	0xbd450153	-0.048096966
6	0xbe97f66b	-0.2968019
7	0xbe4aaa14	-0.19791442
8	0x3e638e26	0.22222194
9	0x3e59c327	0.21265851
10	0x3c917f0e	0.01776078
11	0x3e45ed66	0.19328842
12	0xbea0edda	-0.31431466
13	0x3e76f971	0.24118592
14	0x3e4b971a	0.1988186
15	0x3e1f2e2f	0.15544961
16	0xbca0637e	-0.019578692
17	0xbe18a609	-0.14907087
18	0x3e231915	0.15927537
19	0x3de854ef	0.11344325
20	0xbdcd7915	-0.1003286
21	0xbe7ef625	-0.24898584
22	0x3d90aaa6	0.070637986
23	0x3e26b113	0.16278486
24	0xbddf8bf1	-0.109153636
25	0x3da0c772	0.07850541
26	0xbdb54b0c	-0.08852205
27	0xbeb7251c	-0.357705
28	0xbd76370e	-0.060111098
29	0x3e373183	0.17889981
30	0x3df14866	0.11781387
31	0xbd74bff3	-0.05975337
32	0xbe69fff6	-0.22851548
33	0x3dc1dfa3	0.094664834
34	0x3e49773c	0.1967439
35	0x3eac752e	0.3368315
36	0xbe35db3f	-0.17759417
37	0x3db4c321	0.088262804
38	0xbe8831db	-0.26600537
39	0xbe253345	-0.16132839
40	0xbc475fcd	-0.012168837
41	0xbe91f4ca	-0.28507072
42	0x3e41b4bd	0.18916602
43	0x3efaefdc	0.49011123
44	0x3c967e28	0.018370703
45	0x3e951cf2	0.29123646
46	0xbd907e2b	-0.07055315
47	0xbde4a05d	-0.11163399
48	0x3ae44158	0.0017414493
49	0x3d979a7b	0.07402512
50	0xbc1f2357	-0.0097130155
51	0x3e7bcb43	0.24589257
52	0xbc3ab9e8	-0.011396863
53	0x3e96a987	0.29426214
54	0xbe2ea57e	-0.17055318
55	0xbe987b30	-0.29781485
56	0xbd8fea28	-0.07027084
57	0x3f35da1d	0.7103594
58	0xbc6bb095	-0.014385362
59	0xbe877a67	-0.26460573
60	0x3ed73c59	0.4203823
61	0xbed34167	-0.41260836
62	0x3e28a7fe	0.16470334
63	0xbe30462a	-0.17214265

transformer.layers.0.0.fn.norm.weight f4 [64]
0	0x3e9336a7	0.28752634
1	0x3f04da4f	0.5189561
2	0x3e8d2a41	0.275713
3	0x3edb3e8b	0.42821154
4	0x3e3d6378	0.18494976
5	0x3e88312d	0.26600018
6	0x3ea9feb7	0.33202145
7	0x3ed67b8b	0.4189113
8	0x3e8a8887	0.27057287
9	0x3ec060be	0.37573808
10	0x3e9b5c6a	0.30343944
11	0x3ef89487	0.48550817
12	0x3e553e57	0.20824562
13	0x3e7ca8b0	0.24673724
14	0x3ef1a89f	0.4719896
15	0x3e773009	0.24139418
16	0x3ee2910d	0.4425129
17	0x3eb9d9e7	0.3629906
18	0x3f135d7c	0.5756452
19	0x3e7e05d6	0.24806914
20	0x3f012398	0.50444937
21	0x3ec07069	0.37585762
22	0x3e9b8654	0.30375922
23	0x3f0fef3d	0.56224424
24	0x3efc593a	0.49286824
25	0x3ed0351f	0.40665528
26	0x3efd6a41	0.49495128
27	0x3e8d5875	0.2760655
28	0x3e80a889	0.25128582
29	0x3ed828d7	0.42218658
30	0x3efc89c9	0.49323872
31	0x3e9e7375	0.30947462
32	0x3ec3b5d9	0.38224676
33	0x3f5d0d79	0.8634868
34	0x3e9014e7	0.28140947
35	0x3e99129e	0.29897016
36	0x3edc7bef	0.43063304
37	0x3ef48369	0.47756508
38	0x3f3362d0	0.7007265
39	0x3ecfce32	0.40587002
40	0x3e9cfb03	0.30660257
41	0x3e635cb0	0.22203326
42	0x3ee7ecf2	0.45297962
43	0x3da0b10f	0.07846271
44	0x3ea00ff2	0.31262165
45	0x3ef9142d	0.48648205
46	0x3eaa6315	0.3327872
47	0x3f0cc4fd	0.5498808
48	0x3ed2f9a5	0.4120609
49	0x3e5ffc2d	0.21873541
50	0x3eb9da34	0.36299288
51	0x3f30400a	0.68847716
52	0x3ec8cd40	0.39219093
53	0x3f258700	0.6465912
54	0x3e6100a4	0.219729
55	0x3e0a5a70	0.13511062
56	0x3e88141a	0.26577836
57	0x3e0f54d9	0.1399721
58	0x3efd9095	0.4952437
59	0x3f42fcae	0.7616681
60	0x3e7e913b	0.24860089
61	0x3f0cf364	0.55058885
62	0x3ef470ec	0.47742403
63	0x3efa0a0c	0.4883579

transformer.layers.0.0.fn.norm.bias f4 [64]
0	0x3dc3dba6	0.09563379
1	0x3d3a350a	0.04546074
2	0x3dbf4095	0.0933849
3	0xbce04f46	-0.02738155
4	0x3d82bd6e	0.06383787
5	0x3cf8b5a9	0.03036006
6	0x3e415ccb	0.18883054
7	0x3cef1eb8	0.029189453
8	0xbda43875	-0.08018581
9	0xbe00f903	-0.1259499
10	0x3b9e011e	0.0048219105
11	0xbd3943c8	-0.045230657
12	0x3bad8bf5	0.005296225
13	0xbdba61d6	-0.09100692
14	0xbccb8dfa	-0.024847973
15	0xbc811675	-0.015757779
16	0x3c375e9a	0.011191988
17	0x3cc559e4	0.024090715
18	0x3d175e6d	0.036955286
19	0xbcbbad60	-0.02290982
20	0xbcefffaa	-0.029296715
21	0x3d55cd7e	0.052197926
22	0xbbbf4f1c	-0.005838288
23	0xbc55ce31	-0.013049648
24	0x3d2f1def	0.042753156
25	0xbd9a30ff	-0.075288765
26	0xbd9aaf14	-0.07552925
27	0x3ce2f123	0.027702874
28	0x3d9e95ae	0.07743393
29	0x3c46699a	0.012110138
30	0x3c9662fb	0.018357744
31	0xbcdaf786	-0.026729356
32	0x3d6f16ad	0.058371235
33	0xbda0ea6b	-0.07857212
34	0xbc6987ba	-0.014253551
35	0xbd14da68	-0.0363411
36	0xbdc49a4f	-0.095997445
37	0xbca2a4e4	-0.019854017
38	0x3dd3fba6	0.103507325
39	0x3db114b7	0.08646529
40	0x3d41b6ce	0.047293477
41	0x3dc995f5	0.09843055
42	0x3e23e0dc	0.16003746
43	0xbd8ffaea	-0.0703028
44	0x3dcab09b	0.09896966
45	0xbdaabb06	-0.08336453
46	0x3de51c0d	0.11186991
47	0x3d88f81a	0.066879466
48	0xbd3f0d0d	-0.046643306
49	0xbd9a6f0c	-0.07540712
50	0x3d29b296	0.04143008
51	0xbbb955ef	-0.005655996
52	0xbda6514f	-0.08120977
53	0xbd9ab535	-0.07554094
54	0x3cb9da82	0.0226872
55	0x3cc853cb	0.024454018
56	0xbc0ea12d	-0.0087054195
57	0xbe187a24	-0.14890343
58	0x3cbde6ea	0.023181397
59	0x3d66b95d	0.05632912
60	0xbdcb1b21	-0.09917284
61	0xbd4bf2da	-0.04979215
62	0xbd2b38d1	-0.04180223
63	0x3c5c110b	0.013431798

transformer.layers.0.0.fn.fn.to_qkv.weight f4 [192, 64]
0	0xbe88bcef	-0.26706645
1	0xbe06ba65	-0.13157041
2	0xbe435fc7	-0.19079505
3	0x3ee93ea8	0.45555615
4	0xbf032abe	-0.51237094
5	0xbf3b3ba2	-0.7313787
6	0xbf0cc5ba	-0.54989207
7	0x3e294a63	0.16532283
8	0x3c7f9dfc	0.015601631
9	0x3b9ce327	0.004787821
10	0x3eb11605	0.34587112
11	0xbed5c0d7	-0.41748688
12	0x3ec8e1cc	0.3923477
13	0x3ec811b1	0.39075997
14	0x3daffafa	0.08592792
15	0xbe36f09f	-0.17865227
16	0x3de33cfa	0.11095615
17	0xbe835b2c	-0.25655496
18	0xbf37f6bf	-0.7186088
19	0x3e6f9eb3	0.23400383
20	0xbe713a34	-0.23557359
21	0x3df50090	0.11962998
22	0x3cf645d9	0.030062603
23	0x3ec8672f	0.39141223
24	0xbed479e8	-0.41499257
25	0x3d160e38	0.036634654
26	0x3d918ba2	0.07106711
27	0x3e84f910	0.2597127
28	0xbead33b3	-0.33828506
29	0x3c838177	0.016052945
30	0xbeb84fb6	-0.35998315
31	0x3dd40054	0.10351625
32	0xbc0c7b2d	-0.008574289
33	0x3f1bed73	0.60909194
34	0x3e92db95	0.28683153
35	0xbdd1a104	-0.102357894
36	0x3e78e8d4	0.24307567
37	0xbee53966	-0.44770354
38	0xbc502c91	-0.012705938
39	0xbd920f00	-0.07131767
40	0x3e1601b6	0.1464909
41	0xbe9e33ee	-0.30898994
42	0xbd4330b8	-0.047653884
43	0x3e34929f	0.17634057
44	0xbebf34ea	-0.37345058
45	0xbe9c1964	-0.30488122
46	0xbdd632c6	-0.10458903
47	0x3f0862ff	0.53276056
48	0xbd973c87	-0.073845915
49	0x3f1bbada	0.6083199
50	0xbedb1104	-0.4278642
51	0x3e9b99f0	0.30390882
52	0xbc86ef4b	-0.016471526
53	0x3da0e0f6	0.07855408
54	0x3d888499	0.06665916
55	0xbd9d2156	-0.07672374
56	0x3e94eebf	0.290884
57	0x3dfd4a27	0.12367659
58	0xbe4a1d4f	-0.19737743
59	0x3ee09567	0.43863985
60	0x3eba002f	0.36328265
61	0xbdc59cba	-0.09649034
62	0x3d111ec7	0.035429742
63	0xbc97297e	-0.018452402
64	0xbf1e532d	-0.61845666
65	0x3f33caee	0.7023152
66	0x3e85514c	0.26038587
67	0x3e9c5dda	0.30540353
68	0x3b2bee82	0.002623469
69	0xbd8bd79b	-0.06828233
70	0xbf1e9a9e	-0.6195468
71	0xbe5b6e67	-0.21428834
72	0x3de507cf	0.1118313
73	0x3d4a21c7	0.04934862
74	0xbef67025	-0.48132434
75	0x3ef2ff54	0.47460425
76	0x3d395f44	0.045256868
77	0xbe238dc9	-0.15972055
78	0x3e3514f3	0.17683773
79	0xbed98675	-0.42485395
80	0xbe88c37c	-0.26711643
81	0xbf265491	-0.6497279
82	0xbef108bb	-0.47076973
83	0xbdecad97	-0.11556547
84	0xbdcb5cb8	-0.09929794
85	0xbd56b69a	-0.052420236
86	0x3e2c5f1b	0.16833155
87	0x3e9cf1d7	0.3065326
88	0x3e115bc0	0.14195156
89	0x3edc6c1a	0.43051225
90	0x3f2fc714	0.68663144
91	0x3e448db3	0.19194679
92	0xbe6002f4	-0.21876127
93	0xbe1102f3	-0.14161281
94	0xbf14fb68	-0.58196115
95	0x3ca5ddbc	0.020247333
96	0xbf382eef	-0.71946615
97	0xbc487efa	-0.012237305
98	0x3e38eaec	0.18058366
99	0xbf0f0ebf	-0.55881876
100	0x3ea66eb4	0.32506335
101	0x3f40a076	0.75244844
102	0xbef8e06f	-0.4860873
103	0x3d8575c2	0.06516601
104	0xbce4f0f0	-0.02794692
105	0x3be4656f	0.0069700996
106	0x3d5b414e	0.053529076
107	0x3e551640	0.20809269
108	0xbdf819c9	-0.12114293
109	0x3e7854ba	0.2425107
110	0x3d7c5abc	0.06160997
111	0x3e9e7b92	0.30953652
112	0xbe1a727e	-0.15082738
113	0x3eb2410a	0.34815246
114	0xbf0710dc	-0.527601
115	0x3d98edf3	0.0746726
116	0x3f497ade	0.78703105
117	0x3ea2bb45	0.317835
118	0x3ea7450e	0.32669872
119	0xbf14a849	-0.5806928
120	0x3d950c62	0.072777525
121	0xbd343aa6	-0.044001244
122	0x3e40ee36	0.1884087
123	0x3e91a5d0	0.28446817
124	0xbe8163c2	-0.25271422
125	0x3dcca837	0.09993022
126	0x3e5d0585	0.21584137
127	0x3e2016fa	0.15633765
128	0xbd4daf52	-0.050216027
129	0xbe9cd820	-0.3063364
130	0xbea610cb	-0.32434687
131	0x3f174292	0.59085953
132	0xbee22419	-0.44168165
133	0xbf465b99	-0.77483517
134	0xbf3437e1	-0.70397764
135	0xbda6505a	-0.081207946
136	0x3e45c0fc	0.19311899
137	0xbdc9ede0	-0.09859824
138	0x3e9b34dd	0.3031377
139	0xbe0577f5	-0.13034041
140	0x3ea4394a	0.32074958
141	0x3ec3c32b	0.3823484
142	0xbe1e2868	-0.15445101
143	0xbec92bab	-0.3929113
144	0x3d409655	0.047018368
145	0xbef9f3e0	-0.48818874
146	0xbf24e9d4	-0.64419293
147	0x3e50f298	0.20405042
148	0xbe34c93d	-0.17654891
149	0xbe6e4ff0	-0.23272681
150	0x3de346e8	0.11097509
151	0x3ead3279	0.3382757
152	0xbcdd4e5c	-0.027014904
153	0xbbadad9e	-0.005300238
154	0x3e14752a	0.1449782
155	0x3e244f53	0.16045885
156	0x3dd14154	0.102175385
157	0x3e06103e	0.13092133
158	0x3dd75d64	0.1051586
159	0x3e9f9aed	0.31172886
160	0xbe21acd9	-0.15788592
161	0x3e72df1c	0.23717922
162	0xbcb7adc5	-0.022421727
163	0xbc592b1d	-0.013254908
164	0x3ddc50d8	0.10757607
165	0xbe9d6e1e	-0.30748075
166	0xbed61974	-0.41816294
167	0xbcc9f1c1	-0.02465141
168	0x3e817754	0.25286353
169	0xbe13d231	-0.1443565
170	0x3db233f8	0.087013185
171	0x3e2563f6	0.16151413
172	0xbf1fb73d	-0.62388974
173	0xbe50b287	-0.20380603
174	0x3de1114d	0.10989628
175	0x3f04bdcf	0.51852125
176	0x3d84efe6	0.064910695
177	0x3efa17d8	0.48846316
178	0xbe47ad77	-0.19499765
179	0x3ee96747	0.45586607
180	0x3d952f16	0.072843716
181	0x3e0ab7c1	0.13546659
182	0x3e4b3877	0.19845758
183	0xbe0d7c76	-0.1381701
184	0x3e22bff3	0.15893535
185	0x3e2e5da2	0.17027906
186	0xbe22cd74	-0.15898687
187	0x3ea335ab	0.31876883
188	0x3f249240	0.6428566
189	0xbc3934f2	-0.011304127
190	0x3d4f5cc9	0.050625596
191	0xbf004954	-0.5011189
192	0xbee338ed	-0.44379368
193	0x3e217b6a	0.15769735
194	0xbe55ec5e	-0.20890948
195	0x3dad789c	0.0847027
196	0x3e5908bc	0.21194738
197	0x3eead706	0.45867175
198	0x3e86ac32	0.2630325
199	0xbec8d57b	-0.39225373
200	0x3da682a3	0.08130386
201	0xbb5f5cde	-0.0034082453
202	0xbe66ff0a	-0.22558227
203	0x3edbe3af	0.42947146
204	0xbe41cfc7	-0.18926917
205	0xbd5cba96	-0.05388888
206	0x3ceee92d	0.029163921
207	0x3e1e709d	0.15472646
208	0xbec19541	-0.37809184
209	0xbd560430	-0.052250087
210	0x3e4b68e5	0.19864233
211	0xbdc82a3a	-0.09773679
212	0x3f1d1db1	0.6137343
213	0xb88d6cf0	-6.743695e-05
214	0x3e8fbc61	0.2807341
215	0xbdf39d39	-0.11895222
216	0x3eb7405a	0.35791284
217	0x3ea926fd	0.33037558
218	0x3db8c39c	0.090216845
219	0x3e58a28e	0.2115576
220	0xbec44851	-0.38336423
221	0x3e61e46c	0.22059792
222	0xbd84306f	-0.064545505
223	0xbe406826	-0.1878973
224	0xbedddd64	-0.4333297
225	0xbf21ecc5	-0.63251907
226	0xbeae553d	-0.34049407
227	0x3d55310d	0.05204873
228	0xbdd189ab	-0.10231336
229	0x3ed0871f	0.4072809
230	0xbe604671	-0.21901871
231	0x3ddb3c95	0.107049145
232	0xbd39dc64	-0.045376197
233	0x3eca9f3a	0.39574605
234	0x3c9e0123	0.019287651
235	0x3e9eb8fe	0.31000513
236	0x3eefc6ba	0.46831304
237	0xbe8f708c	-0.28015554
238	0x3e6a429c	0.22876972
239	0xbe39718b	-0.1810972
240	0x3dba3638	0.09092373
241	0xbef4c173	-0.4780384
242	0x3e2408cb	0.16018979
243	0xbecec557	-0.40384933
244	0x3ebda8c9	0.37042835
245	0xbe003ff5	-0.12524398
246	0xbd1a497c	-0.037667736
247	0xbe6200eb	-0.22070663
248	0xbec1bde3	-0.37840185
249	0x3dcf5fa2	0.101256624
250	0x3d6b87f7	0.057502713
251	0xbe871d85	-0.2638971
252	0xbf0415df	-0.5159587
253	0x3ea3db1d	0.32003108
254	0x3e70fe2a	0.23534456
255	0x3d0d1ab8	0.03444931

transformer.layers.0.0.fn.fn.to_out.weight f4 [64, 64]
0	0x3bdc27a4	0.0067185927
1	0x3e70ea24	0.23526818
2	0xbec56fb7	-0.38561794
3	0x3cf2a550	0.029619843
4	0xbe35537b	-0.17707627
5	0xbe8de7ee	-0.2771601
6	0xbe4710c0	-0.19439983
7	0xbda0b088	-0.07846171
8	0xbd9cc7c9	-0.076552935
9	0xbddea46f	-0.10871207
10	0x3eacf0fb	0.33777604
11	0x3e81b5a6	0.253339
12	0xbe7dbef7	-0.24779879
13	0x3e69784a	0.22799793
14	0xbdcd3bac	-0.10021147
15	0x3d059537	0.032613005
16	0xbe1ca02c	-0.15295476
17	0xbf384feb	-0.71996945
18	0xbd3ccd4f	-0.046094235
19	0x3d7d26b4	0.06180449
20	0x3deccaaf	0.11562096
21	0xbeeaa41b	-0.45828328
22	0x3dab222b	0.083561264
23	0xbe1aed0f	-0.15129493
24	0xbeabadf4	-0.33531153
25	0xbe8415ca	-0.25797874
26	0x3dec8ac6	0.115499064
27	0xbeef1b04	-0.467003
28	0xbe382854	-0.17984134
29	0x3ea3de04	0.32005322
30	0x3dd97913	0.10618796
31	0xbe497662	-0.19674066
32	0x3bad202d	0.0052833767
33	0x3e43d373	0.1912363
34	0x3d9c430b	0.07629975
35	0xbe110cac	-0.1416499
36	0xbf39ca61	-0.7257443
37	0xbdbc86d5	-0.09205405
38	0xbef778c6	-0.4833433
39	0xbe91b727	-0.28460047
40	0xbe4bfbb0	-0.1992023
41	0x3f0049dc	0.501127
42	0xbe893e12	-0.26805168
43	0xbe247112	-0.16058758
44	0xbe42396d	-0.18967219
45	0xbce9b39d	-0.02852803
46	0x3e4e935f	0.20173405
47	0xbe4290a5	-0.1900049
48	0x3d8b3aa3	0.067982934
49	0x3e2876de	0.16451594
50	0xbd912777	-0.070876054
51	0x3e3a3a35	0.18186267
52	0xbd55e3db	-0.052219253
53	0x3e6e1ad7	0.23252426
54	0xbef0660c	-0.46952856
55	0x3bbd8424	0.0057835747
56	0xbcbd9874	-0.023143984
57	0xbedf9805	-0.4367067
58	0x3edbf297	0.4295852
59	0xbd5bc8f7	-0.053658452
60	0x3e8ce490	0.2751813
61	0xbd873445	-0.066017665
62	0xbd9bf3c3	-0.07614853
63	0xbec83b83	-0.39107904
64	0xbe7362f9	-0.23768224
65	0x3ec2de3e	0.38060182
66	0x3dde291c	0.10847685
67	0x3c2f992f	0.010717674
68	0xbd905b02	-0.07048608
69	0x3e6ae2e1	0.2293811
70	0xbd8df0bf	-0.06930684
71	0x3e9a28dd	0.301093
72	0x3e172cfc	0.14763254
73	0x3eefde2f	0.468492
74	0xbc42eec2	-0.011897745
75	0xbe527859	-0.20553721
76	0x3e68f71a	0.22750512
77	0xbd8df9dc	-0.069324225
78	0x3edeab13	0.43489894
79	0x3dbb87b0	0.0915674
80	0xbd9322f1	-0.07184399
81	0x3f154dc4	0.58321786
82	0xbe4e9c69	-0.20176853
83	0xbdb55946	-0.08854918
84	0xbd660b44	-0.056163087
85	0x3e4d7f0e	0.20067999
86	0xbe0a306f	-0.13495038
87	0x3f386fb8	0.7204547
88	0xbe91e946	-0.28498286
89	0xbecf9f43	-0.40551195
90	0xbe8c1761	-0.27361587
91	0xbe241891	-0.16024996
92	0xbdd931e7	-0.10605221
93	0xbe02c789	-0.12771429
94	0xbd7f08fe	-0.062264435
95	0xbeb87858	-0.36029315
96	0xbd679e8c	-0.056547686
97	0xbdefe75a	-0.11714049
98	0xbd8a4f25	-0.06753377
99	0xbd4f70e6	-0.050644778
100	0x3f13c5ed	0.57723886
101	0x3da52bf5	0.08065025
102	0x3e98e586	0.29862612
103	0x3e4eca4a	0.20194355
104	0xbd2561cf	-0.04037648
105	0x3cc5f58a	0.024164934
106	0xbe3b1a06	-0.18271646
107	0xbd57f68e	-0.052725367
108	0x3d4dee32	0.05027599
109	0xbd978ec5	-0.07400278
110	0x3ca95f0e	0.020675208
111	0x3e3ef586	0.18648347
112	0x3db7b192	0.08969416
113	0xbe26567d	-0.1624393
114	0xbdf0d8ee	-0.11760126
115	0x3d569378	0.05238673
116	0x3ebf2995	0.37336412
117	0x3d9bddff	0.07610702
118	0xbe68a2e0	-0.22718382
119	0xbe78e07a	-0.24304381
120	0xbe186f08	-0.14886105
121	0xbe1ccc8e	-0.15312406
122	0xbd6d06d0	-0.057867825
123	0xbecd79d9	-0.40132025
124	0x3d1e6e8a	0.038679637
125	0xbcd26404	-0.025682457
126	0xbce9f1d3	-0.028557694
127	0xbe64fadb	-0.22361319
128	0x3ec0eda4	0.37681305
129	0x3ef3e494	0.4763533
130	0xbdb77322	-0.08957507
131	0xbf04cb18	-0.51872396
132	0x3cc9c862	0.024631683
133	0xbebfcbf1	-0.37460282
134	0xbe58e211	-0.21179987
135	0x3ea82339	0.32839373
136	0x3dc68611	0.0969354
137	0xbdecb2a0	-0.115575075
138	0x3e2d541e	0.1692662
139	0x3e82a397	0.25515434
140	0x3c1d8788	0.009614833
141	0x3e0512ad	0.12995405
142	0x3daa4c2b	0.08315309
143	0x3e2e3d2b	0.17015521
144	0x3ecdfcfd	0.40232077
145	0x3e1aa620	0.15102434
146	0x3eed33aa	0.4632848
147	0x3e10f04a	0.14154163
148	0x3e00d63a	0.12581721
149	0x3df3dfb9	0.11907906
150	0xbe01473b	-0.12624829
151	0xbe14c4bd	-0.14528175
152	0xbe3e6919	-0.18594779
153	0xbee63c03	-0.4496766
154	0xbf418ac4	-0.75602365
155	0xbe92a09a	-0.28638154
156	0xbbfaab56	-0.0076498194
157	0x3e4554bf	0.1927061
158	0x3dbd17d8	0.092330635
159	0xbdb7dee3	-0.08978059
160	0x3eadfe7e	0.33983225
161	0xbe2f0bc1	-0.17094328
162	0xbdc0b78e	-0.0941001
163	0x3da86bdb	0.08223697
164	0x3e89bb06	0.269005
165	0xbe66fb2c	-0.22556752
166	0xbe882fe5	-0.2659904
167	0x3dd1b5a9	0.10239727
168	0xbd0cbdb8	-0.034360617
169	0xbdec9653	-0.115521096
170	0xbd8579ba	-0.06517358
171	0x3e89a408	0.26882958
172	0xbe873e40	-0.2641468
173	0xbe0c39e0	-0.13693953
174	0xbdffa339	-0.12482304
175	0xbdb834ff	-0.08994483
176	0x3ea58cae	0.32333893
177	0x3e8e125b	0.2774838
178	0x3eedb675	0.46428266
179	0xbe7049ed	-0.234657
180	0xbe72e7d1	-0.23721243
181	0x3e85fb07	0.2616808
182	0x3e84e4dc	0.25955856
183	0xbe9d7e2d	-0.30760327
184	0xbead63cc	-0.338652
185	0xbeab62bc	-0.33473766
186	0xbdac53e7	-0.084144406
187	0xbdaf9638	-0.08573574
188	0x3e262961	0.16226722
189	0xbe181c25	-0.14854486
190	0xbd2ca1fc	-0.042146668
191	0xbe3a22b1	-0.18177296
192	0x3c161449	0.00916011
193	0x3f25a7ec	0.64709353
194	0xbeb88c03	-0.3604432
195	0xbe4127d5	-0.18862851
196	0xbd1ef2a8	-0.038805634
197	0x3e2e25c8	0.170066
198	0xbde76465	-0.112984456
199	0xbe036113	-0.1283
200	0xbd19dea6	-0.03756585
201	0x3ea2af48	0.31774354
202	0x3e3d9389	0.18513311
203	0x3e67e06a	0.22644201
204	0x3e79473d	0.24343581
205	0x3db00255	0.08594195
206	0x3e7da582	0.24770167
207	0x3d2c6d09	0.04209617
208	0xbde19c7b	-0.110161744
209	0xbed26215	-0.41090456
210	0xbd523007	-0.051315334
211	0xbd6ba955	-0.057534534
212	0xbdd4f9ea	-0.1039923
213	0xbe876d91	-0.2645078
214	0xbea8e779	-0.329891
215	0xbd9ce458	-0.076607406
216	0x3e9f0849	0.3106101
217	0xbe76a888	-0.24087727
218	0x3e3f2e2f	0.18669961
219	0x3dd0c2f9	0.10193438
220	0x3de37a53	0.11107316
221	0xbe3d2bf9	-0.18473805
222	0xbe3e099f	-0.18558358
223	0x3eb80a78	0.35945487
224	0xbd6d047c	-0.057865605
225	0xbdcda13e	-0.1004052
226	0xbd181ca7	-0.0371367
227	0x3e5759df	0.21030377
228	0x3ec79fe5	0.38989177
229	0x3eca945e	0.3956632
230	0x3ea40948	0.3203833
231	0x3eaae35f	0.33376595
232	0x3d5a929b	0.05336247
233	0x3f055fc5	0.5209926
234	0xbc544050	-0.012954786
235	0x3d4f74b3	0.050648402
236	0xbec9369e	-0.39299482
237	0xbd1b1d43	-0.037869703
238	0x3e94b43e	0.29043764
239	0x3d73880b	0.059455913
240	0x3e083a24	0.13303429
241	0xbc68f5fa	-0.014218802
242	0x3e990d9a	0.2989319
243	0x3b20b90b	0.0024524357
244	0x3e953510	0.29142046
245	0x3e04b599	0.12959899
246	0xbe058a5e	-0.13041064
247	0xbe5365e8	-0.20644343
248	0x3f0d54a7	0.55207294
249	0xbdbe6e85	-0.09298424
250	0xbe19e49f	-0.15028618
251	0x3e853789	0.26018932
252	0x3ec1780f	0.3778691
253	0xbe71ef3e	-0.2362642
254	0x3e241699	0.16024245
255	0xbe0d6a23	-0.13810019

transformer.layers.0.0.fn.fn.to_out.bias f4 [64]
0	0xbe7aa190	-0.24475694
1	0x3e1a16f3	0.15047817
2	0xbdca0ab1	-0.098653205
3	0x3dead785	0.11466888
4	0xbd3a1596	-0.045430742
5	0x3e119a38	0.14218986
6	0xbecb8e34	-0.3975693
7	0xbe1a2eca	-0.15056911
8	0x3ef6a05b	0.48169217
9	0xbdb432aa	-0.08798726
10	0xbe72b2b3	-0.23700981
11	0x3edf72f2	0.43642384
12	0xbec79826	-0.38983268
13	0x3e39c929	0.18143143
14	0x3e6dede0	0.23235273
15	0x3e279a15	0.16367371
16	0xbd891edd	-0.0669534
17	0x3defdb94	0.11711803
18	0x3e76095c	0.24027008
19	0x3c54a30e	0.012978328
20	0x3e3ab957	0.18234764
21	0xbe20b3b9	-0.15693559
22	0xbd8a739d	-0.06760333
23	0x3eac1bde	0.3361501
24	0xbcdc3721	-0.026881756
25	0x3eaac137	0.33350536
26	0x3d8e9497	0.06961935
27	0xbeb4824b	-0.35255656
28	0xbf1555b1	-0.5833388
29	0x3e2f3a7c	0.17112154
30	0xbe4ab046	-0.19793805
31	0xbe28fcff	-0.1650276
32	0xbe090290	-0.13379884
33	0xbd599ec5	-0.05312993
34	0xbc4cb2f5	-0.012493839
35	0x3e82883e	0.2549457
36	0x3d489bd7	0.048976745
37	0x3e76d999	0.24106444
38	0xbed07163	-0.40711507
39	0x3daf89b8	0.0857119
40	0xbc572046	-0.013130253
41	0xbecd51f2	-0.40101582
42	0xbea060cb	-0.31323847
43	0x3e188ef8	0.14898288
44	0x3e0f5282	0.13996318
45	0x3e935622	0.28776652
46	0xbe71c0ae	-0.23608658
47	0xbdf3b9aa	-0.11900647
48	0xbcc66e2d	-0.024222458
49	0xbca8fb82	-0.02062774
50	0x3ddc2a4e	0.107502565
51	0x3dfbe1cf	0.12298929
52	0x3e50ea95	0.20401986
53	0x3ea46b56	0.3211314
54	0xbdf83685	-0.12119774
55	0xbeeabeec	-0.45848787
56	0xbe5fb353	-0.2184575
57	0x3f31d15b	0.69460076
58	0xbd0ddf61	-0.03463686
59	0xbd9dbe99	-0.07702369
60	0x3cfd10e1	0.030891838
61	0xbdfdf3da	-0.124000266
62	0x3d725a86	0.05916836
63	0xbe0714a6	-0.1319147

transformer.layers.0.1.fn.norm.weight f4 [64]
0	0x3f24c22f	0.643588
1	0x3f48e9b0	0.7848158
2	0x3ecf5006	0.4049074
3	0x3f0e0c79	0.5548778
4	0x3eee5939	0.46552446
5	0x3ec31ab8	0.38106322
6	0x3e5c8563	0.21535258
7	0x3f8c1f8f	1.0947131
8	0x3eddad07	0.43296072
9	0x3ee5bb72	0.44869572
10	0x3f1b29ee	0.60610855
11	0x3f362b2a	0.71159613
12	0x3f42a57c	0.7603376
13	0x3ed140d3	0.4086977
14	0x3f440efb	0.7658536
15	0x3f2b312d	0.6687191
16	0x3f2530c0	0.6452751
17	0x3f02ed22	0.51143086
18	0x3f10a8db	0.56507653
19	0x3ee57081	0.44812396
20	0x3f5a0747	0.85167354
21	0x3f0b063e	0.543064
22	0x3e8fd12a	0.28089267
23	0x3ecec80d	0.40387002
24	0x3f0dbde5	0.5536788
25	0x3f162207	0.5864567
26	0x3ecfbd88	0.40574288
27	0x3f07d7c5	0.53063613
28	0x3f025fcf	0.5092744
29	0x3f2cdb2b	0.67521924
30	0x3f5a2517	0.85212845
31	0x3f04e382	0.5190965
32	0x3efbc614	0.4917456
33	0x3f4076d6	0.7518133
34	0x3f1bdf55	0.6088765
35	0x3ec983f9	0.393585
36	0x3f08553c	0.5325506
37	0x3ef1a49b	0.47195897
38	0x3f683363	0.9070341
39	0x3ee423b5	0.44558492
40	0x3f089b34	0.5336182
41	0x3f24c191	0.6435786
42	0x3ee0ad44	0.4388219
43	0x3ee3cc6d	0.44491902
44	0x3f2bcf0a	0.6711279
45	0x3f2e7a2f	0.6815519
46	0x3f1a7a09	0.6034246
47	0x3f0f846c	0.56061435
48	0x3e685eea	0.22692457
49	0x3ef4cc3d	0.4781207
50	0x3f32022a	0.6953455
51	0x3f0f7bee	0.56048477
52	0x3f39bc8d	0.7255333
53	0x3f1e749d	0.6189669
54	0x3f2cb917	0.67469925
55	0x3eb4fd50	0.35349512
56	0x3f546d1e	0.82979
57	0x3f3d69ef	0.73989767
58	0x3f3e1f29	0.74266297
59	0x3e8f5bd6	0.27999753
60	0x3e497363	0.19672923
61	0x3eaffd50	0.3437295
62	0x3f47922a	0.77957404
63	0x3e92733f	0.2860355

transformer.layers.0.1.fn.norm.bias f4 [64]
0	0xbe7e6bb0	-0.24845767
1	0x3de6078a	0.11231907
2	0xbe0e8e26	-0.13921413
3	0x3dd7af77	0.10531514
4	0x3c81e44b	0.015855929
5	0x3e675fe4	0.22595173
6	0xbb94fc16	-0.0045466525
7	0x3d3df66e	0.04637759
8	0x3cd5fdd4	0.026122011
9	0x3c4ab30f	0.012371792
10	0xbe8638be	-0.26215166
11	0x3e73cd98	0.23808897
12	0xbee41715	-0.4454886
13	0x3ce69d93	0.02815131
14	0x3d40622a	0.046968617
15	0x3e50f96d	0.20407648
16	0xbd321407	-0.04347613
17	0x3d5da365	0.054110903
18	0xbc613c43	-0.013747278
19	0x3d9277ea	0.07151778
20	0x3e8632f4	0.2621075
21	0x3bae461b	0.005318416
22	0x3e389489	0.18025412
23	0x3e898e39	0.2686632
24	0x3dc4f805	0.096176185
25	0x3e9ca9d9	0.30598333
26	0xbc156d26	-0.009120261
27	0xbcd35979	-0.0257995
28	0xbe8a855e	-0.27054876
29	0x3eea0df9	0.45713785
30	0xbe1aa9d1	-0.15103842
31	0xbe1aaf2b	-0.15105884
32	0xbdab6cd8	-0.0837037
33	0xbe035c53	-0.12828188
34	0xbe101477	-0.14070307
35	0x3b1de98e	0.0024095508
36	0x3e41ef7d	0.18939014
37	0x3e4ef6e2	0.20211366
38	0xbd946bc9	-0.07247121
39	0xbe233490	-0.1593802
40	0xbd4e40e7	-0.050354864
41	0xbe8c4a05	-0.27400222
42	0xbe54acad	-0.20768996
43	0x3df5318c	0.11972341
44	0x3e885ca4	0.2663318
45	0x3e509d00	0.20372391
46	0xbe5a8e57	-0.21343361
47	0xbdd56eaa	-0.10421498
48	0xbaad5b90	-0.001322614
49	0xbd95085c	-0.07276985
50	0x3d19807f	0.03747606
51	0x3e2b33e1	0.16719009
52	0x3d5bdb52	0.053675957
53	0x3e167b83	0.14695553
54	0xbdaf04a4	-0.08545807
55	0xbb411a74	-0.002946523
56	0xbd838757	-0.064222984
57	0x3f385818	0.7200942
58	0x3c550f4e	0.013004137
59	0x3d6d2f8e	0.05790668
60	0x3bf56c5d	0.0074897246
61	0xbce2b530	-0.027674288
62	0x3de5fd86	0.112299964
63	0xbc1b3830	-0.009473845

transformer.layers.0.1.fn.fn.net.0.weight f4 [128, 64]
0	0x3f466a90	0.7750635
1	0xbbdc2db6	-0.0067193164
2	0x3e29aee3	0.1657062
3	0xbe17154b	-0.14754216
4	0xbeba872c	-0.36431253
5	0xbe948257	-0.2900569
6	0x3c1ada91	0.009451524
7	0xbf33d7cb	-0.7025115
8	0xba86111a	-0.0010228485
9	0xbee239b6	-0.44184655
10	0x3eaf2383	0.3420678
11	0xbd813e94	-0.06310764
12	0x3c74118b	0.014896761
13	0xbdca70f0	-0.09884822
14	0x3f00cae7	0.50309604
15	0xbe3a8837	-0.18216024
16	0x3f490248	0.78519106
17	0xbe8ffbca	-0.28121787
18	0xbdbca4ff	-0.09211158
19	0x3e7261c6	0.2367011
20	0xbf4cf65e	-0.80063426
21	0x3f009864	0.5023253
22	0xbe24a6c1	-0.16079237
23	0x3ce28aa2	0.027653996
24	0xbef03bae	-0.46920532
25	0xbf70ba1c	-0.9403398
26	0xbd3c78dd	-0.0460137
27	0xbf0d7e06	-0.5527042
28	0x3e29ab9b	0.16569369
29	0xbe5a73b9	-0.21333207
30	0x3e5da635	0.21645434
31	0xbed13f3b	-0.40868554
32	0x3ef7718c	0.48328817
33	0xbe15ba0a	-0.1462175
34	0xbe19969e	-0.14998862
35	0xbe740344	-0.2382937
36	0x3d980535	0.07422868
37	0x3e6195ff	0.22029875
38	0xbf082fcf	-0.5319795
39	0xbd86ffae	-0.06591736
40	0x3edff17d	0.43738928
41	0xbe22316a	-0.15839162
42	0x3ecbb789	0.39788464
43	0xbee42ef4	-0.44567072
44	0x3e1aacff	0.15105055
45	0x3ec42c38	0.38314986
46	0x3f399143	0.72487277
47	0x3f5de74d	0.8668106
48	0x3d606dd4	0.05479224
49	0xbbf118cc	-0.0073576923
50	0x3ea4bb16	0.32173985
51	0xbe2b78ad	-0.16745253
52	0x3ec1e634	0.37870944
53	0x3dc6be65	0.097042836
54	0x3e65ac04	0.224289
55	0x3dc25e5b	0.09490653
56	0x3cb4ce22	0.022070948
57	0xbe900307	-0.2812731
58	0xbf025faa	-0.5092722
59	0x3e11f210	0.14252496
60	0xbeb67dc4	-0.35642827
61	0xbecdccf4	-0.4019543
62	0x3da1aa92	0.07893862
63	0xbe24b03b	-0.16082852
64	0x3e91e5d8	0.2849567
65	0xbda8dc7c	-0.08245179
66	0x3e4967bc	0.19668478
67	0xbe892115	-0.26783052
68	0xbf3371d8	-0.70095587
69	0xbecba9d2	-0.39778
70	0xbe042a77	-0.12906824
71	0x3e8d744e	0.27627796
72	0xbd417cd0	-0.04723817
73	0xbf0c50d7	-0.5481085
74	0x3f0c2df7	0.54757637
75	0xbd65c470	-0.05609554
76	0x3e9f2ba3	0.3108798
77	0x3f03965a	0.51401293
78	0xbc167ebf	-0.009185492
79	0xbe559c68	-0.20860445
80	0xbdebbfb8	-0.11511177
81	0x3effed1a	0.49985582
82	0xbe79c804	-0.24392706
83	0x3e825ed4	0.25462973
84	0x3d892f61	0.0669849
85	0xbe1862db	-0.1488146
86	0x3e1ca106	0.152958
87	0xbee2f13e	-0.44324678
88	0xbdd6717e	-0.10470866
89	0xbf161ffd	-0.5864256
90	0xbe24f24c	-0.16108054
91	0x3f209d38	0.62739897
92	0x3eb669c6	0.35627574
93	0xbe38fddc	-0.1806559
94	0x3d5fff41	0.05468679
95	0x3baaf4aa	0.0052171545
96	0x3eb857e3	0.36004552
97	0xbdb1dc94	-0.0868465
98	0x3e96a22f	0.2942061
99	0x3ea4b2d4	0.32167685
100	0x3eb1a5d8	0.3469684
101	0xbe223adb	-0.15842764
102	0x3d1c4b09	0.038157497
103	0xbf17042f	-0.5899076
104	0xbed31c9d	-0.41232768
105	0x3dc3919a	0.09549256
106	0xbe9954d6	-0.29947537
107	0xbe13ef13	-0.14446668
108	0xbe25fc7e	-0.162096
109	0xbe2f50b3	-0.17120628
110	0x3d4789f2	0.04871554
111	0x3eafddd2	0.34348923
112	0x3e31ce04	0.17363745
113	0xbdf5a84f	-0.11994993
114	0x3f01418c	0.5049064
115	0xbe48a089	-0.1959249
116	0x3f093fa1	0.53612715
117	0xbec3c309	-0.38234738
118	0x3d52860e	0.051397376
119	0x3e789a05	0.24277504
120	0xbe01d3d0	-0.12678456
121	0xbd8601ab	-0.06543287
122	0xbdae6f09	-0.08517272
123	0xbf1dd219	-0.6164871
124	0xbe26f074	-0.16302663
125	0x3f7b8d8b	0.9826285
126	0xbee6421f	-0.4497232
127	0xbe5f0492	-0.21779087
128	0xbf16032d	-0.58598596
129	0x3e4f4203	0.20240025
130	0xbeaebe65	-0.34129634
131	0x3d966990	0.07344353
132	0xbed3a16c	-0.41334093
133	0xbd2cbd1e	-0.042172544
134	0x3e61ff01	0.22069933
135	0x3d28acd8	0.04118046
136	0xbef2a3ed	-0.4739069
137	0x3e552208	0.20813763
138	0xbcb28854	-0.021793522
139	0xbe858c15	-0.26083437
140	0x3d2e738c	0.042590663
141	0xbf03d833	-0.5150177
142	0x3e1ca0fb	0.15295784
143	0xbe27abe5	-0.16374166
144	0x3e588978	0.2114619
145	0x3f5676b0	0.8377485
146	0xbf0aaee4	-0.5417311
147	0xbde1a72a	-0.11018212
148	0xbe117828	-0.14205992
149	0x3eb0483d	0.34430113
150	0x3da7b468	0.08188707
151	0xbe1307e1	-0.14358474
152	0x3eb9888a	0.36236984
153	0xbe5ca5d1	-0.21547629
154	0xbe91bbcf	-0.284636
155	0x3d667d5d	0.0562719
156	0x3d95f28e	0.07321654
157	0xbf28b1ab	-0.658961
158	0xbd8f62dc	-0.07001278
159	0x3e668e58	0.22515237
160	0x3d51250c	0.05106072
161	0x3dfa6718	0.12226695
162	0x3e2167be	0.15762231
163	0x3e608fb3	0.21929817
164	0x3eb85373	0.36001167
165	0xbd96d79a	-0.073653415
166	0x3e91ecef	0.28501078
167	0xbea0e789	-0.31426647
168	0xbeaf9236	-0.34291238
169	0x3ed4ea41	0.41584972
170	0xbb0df0b4	-0.0021658363
171	0x3e032f14	0.12810928
172	0x3f258170	0.6465063
173	0xbf0221d9	-0.508329
174	0x3e764974	0.24051458
175	0xbe0d410f	-0.13794349
176	0x3f014683	0.5049822
177	0xbe8bd6a1	-0.27312186
178	0xbaeba69b	-0.001797873
179	0xbe06c3c8	-0.13160622
180	0x3e98bfca	0.29833823
181	0xbf167ccc	-0.58784175
182	0xbe1372fa	-0.14399329
183	0xbedc344a	-0.43008643
184	0x3ea4d024	0.3219005
185	0xbef688f8	-0.48151374
186	0x3e65bc62	0.22435144
187	0x3e915a49	0.28389195
188	0x3d37dbab	0.044887226
189	0xbdb5a45c	-0.0886924
190	0x3ed99190	0.42493868
191	0x3ec743fa	0.3891905
192	0x3e73257e	0.23744771
193	0x3bf64f09	0.007516746
194	0x3ea6efba	0.32604772
195	0xbebccd97	-0.36875603
196	0x3e35f325	0.17768534
197	0xbe452f5a	-0.19256344
198	0x3e618a55	0.22025426
199	0x3dbdf974	0.09276095
200	0xbea19fa0	-0.31567097
201	0x3ce240bf	0.027618764
202	0x3e50d804	0.20394903
203	0xbe0a737a	-0.13520613
204	0x3ee520eb	0.44751677
205	0xbd399c09	-0.045314822
206	0xbc8213e0	-0.015878618
207	0xbe3cfe15	-0.184563
208	0xbcb14b25	-0.021642277
209	0x3e65dbf6	0.2244719
210	0xbdcf7019	-0.10128803
211	0x3d73342d	0.05937593
212	0xbe2e5abb	-0.17026798
213	0x3d9a6658	0.07539052
214	0xbe194ac0	-0.14969921
215	0xbedf4de2	-0.43614107
216	0x3bb596c3	0.005541654
217	0xbeae41ad	-0.34034482
218	0xbde5c255	-0.112187065
219	0x3e99f874	0.30072367
220	0x3e7789c3	0.24173646
221	0xbebd4968	-0.36970067
222	0x3cbdbc34	0.023161031
223	0x3ea59bcf	0.32345435
224	0xbda66c7c	-0.081261605
225	0xbe330247	-0.17481337
226	0x3e798489	0.24366964
227	0xbecb01d7	-0.3964984
228	0xbd9643be	-0.073371395
229	0xbe347bdc	-0.17625374
230	0x3dc08522	0.09400393
231	0x3e8a6305	0.2702867
232	0xbdeade94	-0.11468235
233	0x3ed5d834	0.41766512
234	0xbd631b96	-0.05544623
235	0xbe0f2119	-0.1397747
236	0xbed19ce3	-0.40940008
237	0xbe2f765b	-0.17134993
238	0x3e9965c5	0.29960456
239	0x3e7dc418	0.24781835
240	0xbd3a5710	-0.045493186
241	0x3ea63592	0.32462746
242	0xbd753aad	-0.05987041
243	0xbe74f39f	-0.23921059
244	0xbdbd7746	-0.09251265
245	0xbeda7893	-0.42670116
246	0x3e194f5a	0.14971676
247	0x3edeb774	0.4349934
248	0x3e1364e0	0.1439395
249	0xbf3f5d3a	-0.7475163
250	0x3d9dab6e	0.07698713
251	0xbd88c87c	-0.06678864
252	0xbe07265d	-0.13198228
253	0x3e78c3ea	0.24293485
254	0xbeda573d	-0.42644683
255	0x3e2b04ba	0.16701022

transformer.layers.0.1.fn.fn.net.0.bias f4 [128]
0	0xbe2afc65	-0.16697843
1	0xbe9a914a	-0.30188972
2	0xbe5dd39b	-0.21662752
3	0xbf150100	-0.5820465
4	0xbeb01f9c	-0.34399116
5	0xbead206c	-0.33813798
6	0xbe7554f5	-0.2395819
7	0xbe6f4e2e	-0.23369667
8	0xbe900e54	-0.28135931
9	0xbea9d138	-0.33167434
10	0xbeaf7059	-0.34265402
11	0xbe8ed809	-0.27899197
12	0xbef64ac5	-0.4810392
13	0xbe7c422f	-0.24634622
14	0xbe376c36	-0.17912373
15	0xbe362ebf	-0.1779127
16	0xbebe3a03	-0.37153634
17	0xbe4fa5d5	-0.20278104
18	0xbe9dc96e	-0.3081774
19	0xbee0add7	-0.4388263
20	0xbdaf5fff	-0.08563232
21	0xbe16a1ff	-0.14710234
22	0xbe9ad260	-0.30238628
23	0xbee216be	-0.44157976
24	0xbea2c0f4	-0.31787837
25	0xbeeb18d5	-0.45917383
26	0xbeba0e73	-0.3633915
27	0xbe166522	-0.14687017
28	0xbe342a0f	-0.17594169
29	0xbe610208	-0.21973431
30	0xbecfae29	-0.4056256
31	0xbe707373	-0.2348154
32	0xbe9c42da	-0.30519754
33	0xbe7fe64d	-0.24990197
34	0xbe3dab06	-0.18522272
35	0xbeb93d09	-0.3617938
36	0xbed061c2	-0.40699583
37	0xbe648d82	-0.22319606
38	0xbe7a96e3	-0.24471621
39	0xbeee83f7	-0.46585056
40	0xbecd78a6	-0.4013111
41	0xbeb7a2f6	-0.35866517
42	0xbea7d42b	-0.3277906
43	0xbf002113	-0.5005047
44	0xbe41212e	-0.18860313
45	0xbf015371	-0.50517946
46	0xbe9716ae	-0.2950949
47	0xbf18be8d	-0.5966576
48	0xbeb25888	-0.3483317
49	0xbebbc786	-0.36675662
50	0xbeea70ac	-0.45789087
51	0xbe74d66b	-0.23909919
52	0xbefbc755	-0.49175516
53	0xbe8678b2	-0.26263958
54	0xbebd6e17	-0.36998054
55	0xbdd0c84d	-0.10194454
56	0xbeaa6dd6	-0.33286923
57	0xbe83680f	-0.25665328
58	0xbeee0e83	-0.46495447
59	0xbeb26af0	-0.34847212
60	0xbf0c1aa6	-0.5472816
61	0xbf1bb8fe	-0.6082915
62	0xbec56951	-0.38556913
63	0xbeb1c59d	-0.3472108
64	0xbf1c0371	-0.6094275
65	0xbe9e1a87	-0.30879614
66	0xbdede23f	-0.11615419
67	0xbec8ff3b	-0.39257225
68	0xbedc5c74	-0.43039286
69	0xbe31ffcc	-0.17382735
70	0xbe7a830b	-0.24464051
71	0xbf095636	-0.5364717
72	0xbed32dcf	-0.41245887
73	0xbe3306f3	-0.1748312
74	0xbee0a4c7	-0.43875715
75	0xbe9b33be	-0.30312914
76	0xbf1691a1	-0.5881596
77	0xbee29330	-0.4425292
78	0xbe336935	-0.17520602
79	0xbe67caee	-0.22636005
80	0xbeca7f7e	-0.39550394
81	0xbeb9a0e5	-0.36255565
82	0xbeb517fe	-0.35369867
83	0xbec04d15	-0.3755881
84	0xbed851e5	-0.4224998
85	0xbf1e0207	-0.61721843
86	0xbeba1613	-0.36344966
87	0xbed12dbf	-0.40855214
88	0xbe973f08	-0.29540277
89	0xbee1c88f	-0.44098327
90	0xbe03c32e	-0.12867424
91	0xbe3e7891	-0.1860068
92	0xbde90395	-0.11377636
93	0xbe9f9763	-0.31170186
94	0xbe7f9f8d	-0.24963208
95	0xbe104d25	-0.14091928
96	0x3d95b9da	0.07310839
97	0xbe4b3e44	-0.19847971
98	0xbeaed07c	-0.34143436
99	0xbee092ca	-0.4386199
100	0xbedf036a	-0.43557292
101	0xbf099fa2	-0.53759205
102	0xbdddfd97	-0.10839384
103	0xbedcdeb5	-0.43138662
104	0xbe94e2b0	-0.290792
105	0xbf167197	-0.58767074
106	0xbe24868c	-0.1606695
107	0xbeb8dda3	-0.36106595
108	0xbed9a86e	-0.42511314
109	0xbef355b4	-0.47526324
110	0xbeba92b3	-0.36440048
111	0xbea59e33	-0.3234726
112	0xbeb17393	-0.3465849
113	0xbeb046de	-0.34429067
114	0xbec26b35	-0.37972417
115	0xbea251d0	-0.31703043
116	0xbea1b7ff	-0.3158569
117	0xbec96ea8	-0.39342237
118	0xbf0c0866	-0.54700315
119	0xbea4721f	-0.32118317
120	0xbf01afb2	-0.50658715
121	0xbed18e56	-0.40928906
122	0xbebacfe2	-0.36486727
123	0xbe81005d	-0.2519559
124	0xbe7d4cac	-0.24736279
125	0xbf039da7	-0.51412433
126	0xbec0f28b	-0.37685046
127	0xbdfe2278	-0.12408918
